20-05-12 14:21:33, INFO: 

================ SRResNet - TRAINING =================


20-05-12 14:21:33, INFO: [('crop_size', 88), ('models_dir', '/content/gdrive/My Drive/MOUNT/models'), ('num_epochs', 100), ('train_file', '/content/gdrive/My Drive/MOUNT/dataset/VOC-2012-train.pkl'), ('upscale_factor', 4), ('valid_file', '/content/gdrive/My Drive/MOUNT/dataset/VOC-2012-valid_4.pkl')]
20-05-12 14:25:43, INFO: No.parameters: 882445
20-05-12 14:25:43, INFO: SRResNet(
  (block1): Sequential(
    (0): Conv2d(3, 64, kernel_size=(9, 9), stride=(1, 1), padding=(4, 4))
    (1): PReLU(num_parameters=1)
  )
  (residual_blocks): Sequential(
    (0): ResidualBlock(
      (conv1): Conv2d(64, 64, kernel_size=(3, 3), stride=(1, 1), padding=(1, 1))
      (bn1): BatchNorm2d(64, eps=1e-05, momentum=0.1, affine=True, track_running_stats=True)
      (prelu): PReLU(num_parameters=1)
      (conv2): Conv2d(64, 64, kernel_size=(3, 3), stride=(1, 1), padding=(1, 1))
      (bn2): BatchNorm2d(64, eps=1e-05, momentum=0.1, affine=True, track_running_stats=True)
    )
    (1): ResidualBlock(
      (conv1): Conv2d(64, 64, kernel_size=(3, 3), stride=(1, 1), padding=(1, 1))
      (bn1): BatchNorm2d(64, eps=1e-05, momentum=0.1, affine=True, track_running_stats=True)
      (prelu): PReLU(num_parameters=1)
      (conv2): Conv2d(64, 64, kernel_size=(3, 3), stride=(1, 1), padding=(1, 1))
      (bn2): BatchNorm2d(64, eps=1e-05, momentum=0.1, affine=True, track_running_stats=True)
    )
    (2): ResidualBlock(
      (conv1): Conv2d(64, 64, kernel_size=(3, 3), stride=(1, 1), padding=(1, 1))
      (bn1): BatchNorm2d(64, eps=1e-05, momentum=0.1, affine=True, track_running_stats=True)
      (prelu): PReLU(num_parameters=1)
      (conv2): Conv2d(64, 64, kernel_size=(3, 3), stride=(1, 1), padding=(1, 1))
      (bn2): BatchNorm2d(64, eps=1e-05, momentum=0.1, affine=True, track_running_stats=True)
    )
    (3): ResidualBlock(
      (conv1): Conv2d(64, 64, kernel_size=(3, 3), stride=(1, 1), padding=(1, 1))
      (bn1): BatchNorm2d(64, eps=1e-05, momentum=0.1, affine=True, track_running_stats=True)
      (prelu): PReLU(num_parameters=1)
      (conv2): Conv2d(64, 64, kernel_size=(3, 3), stride=(1, 1), padding=(1, 1))
      (bn2): BatchNorm2d(64, eps=1e-05, momentum=0.1, affine=True, track_running_stats=True)
    )
    (4): ResidualBlock(
      (conv1): Conv2d(64, 64, kernel_size=(3, 3), stride=(1, 1), padding=(1, 1))
      (bn1): BatchNorm2d(64, eps=1e-05, momentum=0.1, affine=True, track_running_stats=True)
      (prelu): PReLU(num_parameters=1)
      (conv2): Conv2d(64, 64, kernel_size=(3, 3), stride=(1, 1), padding=(1, 1))
      (bn2): BatchNorm2d(64, eps=1e-05, momentum=0.1, affine=True, track_running_stats=True)
    )
    (5): ResidualBlock(
      (conv1): Conv2d(64, 64, kernel_size=(3, 3), stride=(1, 1), padding=(1, 1))
      (bn1): BatchNorm2d(64, eps=1e-05, momentum=0.1, affine=True, track_running_stats=True)
      (prelu): PReLU(num_parameters=1)
      (conv2): Conv2d(64, 64, kernel_size=(3, 3), stride=(1, 1), padding=(1, 1))
      (bn2): BatchNorm2d(64, eps=1e-05, momentum=0.1, affine=True, track_running_stats=True)
    )
    (6): ResidualBlock(
      (conv1): Conv2d(64, 64, kernel_size=(3, 3), stride=(1, 1), padding=(1, 1))
      (bn1): BatchNorm2d(64, eps=1e-05, momentum=0.1, affine=True, track_running_stats=True)
      (prelu): PReLU(num_parameters=1)
      (conv2): Conv2d(64, 64, kernel_size=(3, 3), stride=(1, 1), padding=(1, 1))
      (bn2): BatchNorm2d(64, eps=1e-05, momentum=0.1, affine=True, track_running_stats=True)
    )
  )
  (block3): Sequential(
    (0): Conv2d(64, 64, kernel_size=(3, 3), stride=(1, 1), padding=(1, 1))
    (1): BatchNorm2d(64, eps=1e-05, momentum=0.1, affine=True, track_running_stats=True)
  )
  (block4): Sequential(
    (0): UpsampleBLock(
      (conv): Conv2d(64, 256, kernel_size=(3, 3), stride=(1, 1), padding=(1, 1))
      (pixel_shuffle): PixelShuffle(upscale_factor=2)
      (prelu): PReLU(num_parameters=1)
    )
    (1): UpsampleBLock(
      (conv): Conv2d(64, 256, kernel_size=(3, 3), stride=(1, 1), padding=(1, 1))
      (pixel_shuffle): PixelShuffle(upscale_factor=2)
      (prelu): PReLU(num_parameters=1)
    )
    (2): Conv2d(64, 3, kernel_size=(9, 9), stride=(1, 1), padding=(4, 4))
  )
)
20-05-12 14:27:15, INFO: EPOCH 1 - Loss: 0.011676704418399336
20-05-12 14:27:15, INFO: /content/gdrive/My Drive/MOUNT/models/checkpoint_20-05-12_14-27-15_1.pth
20-05-12 14:27:43, INFO: Val_loss: 0.008000134490430355 - PSNR: 23.55014844044236 - SSIM: 0.7843859888643637
20-05-12 14:29:06, INFO: EPOCH 2 - Loss: 0.006999300648297729
20-05-12 14:29:06, INFO: /content/gdrive/My Drive/MOUNT/models/checkpoint_20-05-12_14-29-06_2.pth
…
