20-05-10 10:47:32, INFO: 

================ SRResNet - TRAINING =================


20-05-10 10:47:32, INFO: [('crop_size', 88), ('models_dir', '/content/gdrive/My Drive/MOUNT/models'), ('num_epochs', 50), ('train_file', '/content/gdrive/My Drive/MOUNT/dataset/VOC-2012-train.pkl'), ('upscale_factor', 4), ('valid_file', '/content/gdrive/My Drive/MOUNT/dataset/VOC-2012-valid_4.pkl')]
20-05-10 10:47:39, INFO: No.parameters: 192011
20-05-10 10:47:39, INFO: SRResNet(
  (block1): Sequential(
    (0): Conv2d(3, 32, kernel_size=(9, 9), stride=(1, 1), padding=(4, 4))
    (1): PReLU(num_parameters=1)
  )
  (residual_blocks): Sequential(
    (0): ResidualBlock(
      (conv1): Conv2d(32, 32, kernel_size=(3, 3), stride=(1, 1), padding=(1, 1))
      (bn1): BatchNorm2d(32, eps=1e-05, momentum=0.1, affine=True, track_running_stats=True)
      (prelu): PReLU(num_parameters=1)
      (conv2): Conv2d(32, 32, kernel_size=(3, 3), stride=(1, 1), padding=(1, 1))
      (bn2): BatchNorm2d(32, eps=1e-05, momentum=0.1, affine=True, track_running_stats=True)
    )
    (1): ResidualBlock(
      (conv1): Conv2d(32, 32, kernel_size=(3, 3), stride=(1, 1), padding=(1, 1))
      (bn1): BatchNorm2d(32, eps=1e-05, momentum=0.1, affine=True, track_running_stats=True)
      (prelu): PReLU(num_parameters=1)
      (conv2): Conv2d(32, 32, kernel_size=(3, 3), stride=(1, 1), padding=(1, 1))
      (bn2): BatchNorm2d(32, eps=1e-05, momentum=0.1, affine=True, track_running_stats=True)
    )
    (2): ResidualBlock(
      (conv1): Conv2d(32, 32, kernel_size=(3, 3), stride=(1, 1), padding=(1, 1))
      (bn1): BatchNorm2d(32, eps=1e-05, momentum=0.1, affine=True, track_running_stats=True)
      (prelu): PReLU(num_parameters=1)
      (conv2): Conv2d(32, 32, kernel_size=(3, 3), stride=(1, 1), padding=(1, 1))
      (bn2): BatchNorm2d(32, eps=1e-05, momentum=0.1, affine=True, track_running_stats=True)
    )
    (3): ResidualBlock(
      (conv1): Conv2d(32, 32, kernel_size=(3, 3), stride=(1, 1), padding=(1, 1))
      (bn1): BatchNorm2d(32, eps=1e-05, momentum=0.1, affine=True, track_running_stats=True)
      (prelu): PReLU(num_parameters=1)
      (conv2): Conv2d(32, 32, kernel_size=(3, 3), stride=(1, 1), padding=(1, 1))
      (bn2): BatchNorm2d(32, eps=1e-05, momentum=0.1, affine=True, track_running_stats=True)
    )
    (4): ResidualBlock(
      (conv1): Conv2d(32, 32, kernel_size=(3, 3), stride=(1, 1), padding=(1, 1))
      (bn1): BatchNorm2d(32, eps=1e-05, momentum=0.1, affine=True, track_running_stats=True)
      (prelu): PReLU(num_parameters=1)
      (conv2): Conv2d(32, 32, kernel_size=(3, 3), stride=(1, 1), padding=(1, 1))
      (bn2): BatchNorm2d(32, eps=1e-05, momentum=0.1, affine=True, track_running_stats=True)
    )
  )
  (block3): Sequential(
    (0): Conv2d(32, 32, kernel_size=(3, 3), stride=(1, 1), padding=(1, 1))
    (1): BatchNorm2d(32, eps=1e-05, momentum=0.1, affine=True, track_running_stats=True)
  )
  (block4): Sequential(
    (0): UpsampleBLock(
      (conv): Conv2d(32, 128, kernel_size=(3, 3), stride=(1, 1), padding=(1, 1))
      (pixel_shuffle): PixelShuffle(upscale_factor=2)
      (prelu): PReLU(num_parameters=1)
    )
    (1): UpsampleBLock(
      (conv): Conv2d(32, 128, kernel_size=(3, 3), stride=(1, 1), padding=(1, 1))
      (pixel_shuffle): PixelShuffle(upscale_factor=2)
      (prelu): PReLU(num_parameters=1)
    )
    (2): Conv2d(32, 3, kernel_size=(9, 9), stride=(1, 1), padding=(4, 4))
  )
)
20-05-10 10:47:48, INFO: EPOCH 1 - Loss: 0.02114855121076107
20-05-10 10:47:48, INFO: /content/gdrive/My Drive/MOUNT/models/checkpoint_20-05-10_10-47-48_1.pth
20-05-10 10:47:53, INFO: Val_loss: 0.014187231659889221 - PSNR: 21.41143401549441 - SSIM: 0.6689536092551065
20-05-10 10:47:58, INFO: EPOCH 2 - Loss: 0.011100977192322413
20-05-10 10:47:58, INFO: /content/gdrive/My Drive/MOUNT/models/checkpoint_20-05-10_10-47-58_2.pth
…
20-05-10 10:56:22, INFO: Val_loss: 0.005581058096140623 - PSNR: 24.880730771109164 - SSIM: 0.8106052796729167
20-05-10 10:56:22, INFO: Completed



20-05-10 09:58:30, INFO: 

================ SRResNet - TRAINING =================


20-05-10 09:58:30, INFO: [('crop_size', 88), ('models_dir', '/content/gdrive/My Drive/MOUNT/models'), ('num_epochs', 50), ('train_file', '/content/gdrive/My Drive/MOUNT/dataset/VOC-2012-train.pkl'), ('upscale_factor', 4), ('valid_file', '/content/gdrive/My Drive/MOUNT/dataset/VOC-2012-valid_4.pkl')]
20-05-10 09:58:58, INFO: No.parameters: 734219
20-05-10 09:58:58, INFO: SRResNet(
  (block1): Sequential(
    (0): Conv2d(3, 64, kernel_size=(9, 9), stride=(1, 1), padding=(4, 4))
    (1): PReLU(num_parameters=1)
  )
  (residual_blocks): Sequential(
    (0): ResidualBlock(
      (conv1): Conv2d(64, 64, kernel_size=(3, 3), stride=(1, 1), padding=(1, 1))
      (bn1): BatchNorm2d(64, eps=1e-05, momentum=0.1, affine=True, track_running_stats=True)
      (prelu): PReLU(num_parameters=1)
      (conv2): Conv2d(64, 64, kernel_size=(3, 3), stride=(1, 1), padding=(1, 1))
      (bn2): BatchNorm2d(64, eps=1e-05, momentum=0.1, affine=True, track_running_stats=True)
    )
    (1): ResidualBlock(
      (conv1): Conv2d(64, 64, kernel_size=(3, 3), stride=(1, 1), padding=(1, 1))
      (bn1): BatchNorm2d(64, eps=1e-05, momentum=0.1, affine=True, track_running_stats=True)
      (prelu): PReLU(num_parameters=1)
      (conv2): Conv2d(64, 64, kernel_size=(3, 3), stride=(1, 1), padding=(1, 1))
      (bn2): BatchNorm2d(64, eps=1e-05, momentum=0.1, affine=True, track_running_stats=True)
    )
    (2): ResidualBlock(
      (conv1): Conv2d(64, 64, kernel_size=(3, 3), stride=(1, 1), padding=(1, 1))
      (bn1): BatchNorm2d(64, eps=1e-05, momentum=0.1, affine=True, track_running_stats=True)
      (prelu): PReLU(num_parameters=1)
      (conv2): Conv2d(64, 64, kernel_size=(3, 3), stride=(1, 1), padding=(1, 1))
      (bn2): BatchNorm2d(64, eps=1e-05, momentum=0.1, affine=True, track_running_stats=True)
    )
    (3): ResidualBlock(
      (conv1): Conv2d(64, 64, kernel_size=(3, 3), stride=(1, 1), padding=(1, 1))
      (bn1): BatchNorm2d(64, eps=1e-05, momentum=0.1, affine=True, track_running_stats=True)
      (prelu): PReLU(num_parameters=1)
      (conv2): Conv2d(64, 64, kernel_size=(3, 3), stride=(1, 1), padding=(1, 1))
      (bn2): BatchNorm2d(64, eps=1e-05, momentum=0.1, affine=True, track_running_stats=True)
    )
    (4): ResidualBlock(
      (conv1): Conv2d(64, 64, kernel_size=(3, 3), stride=(1, 1), padding=(1, 1))
      (bn1): BatchNorm2d(64, eps=1e-05, momentum=0.1, affine=True, track_running_stats=True)
      (prelu): PReLU(num_parameters=1)
      (conv2): Conv2d(64, 64, kernel_size=(3, 3), stride=(1, 1), padding=(1, 1))
      (bn2): BatchNorm2d(64, eps=1e-05, momentum=0.1, affine=True, track_running_stats=True)
    )
  )
  (block3): Sequential(
    (0): Conv2d(64, 64, kernel_size=(3, 3), stride=(1, 1), padding=(1, 1))
    (1): BatchNorm2d(64, eps=1e-05, momentum=0.1, affine=True, track_running_stats=True)
  )
  (block4): Sequential(
    (0): UpsampleBLock(
      (conv): Conv2d(64, 256, kernel_size=(3, 3), stride=(1, 1), padding=(1, 1))
      (pixel_shuffle): PixelShuffle(upscale_factor=2)
      (prelu): PReLU(num_parameters=1)
    )
    (1): UpsampleBLock(
      (conv): Conv2d(64, 256, kernel_size=(3, 3), stride=(1, 1), padding=(1, 1))
      (pixel_shuffle): PixelShuffle(upscale_factor=2)
      (prelu): PReLU(num_parameters=1)
    )
    (2): Conv2d(64, 3, kernel_size=(9, 9), stride=(1, 1), padding=(4, 4))
  )
)
20-05-10 09:59:16, INFO: EPOCH 1 - Loss: 0.02365874214222034
20-05-10 09:59:16, INFO: /content/gdrive/My Drive/MOUNT/models/checkpoint_20-05-10_09-59-16_1.pth
20-05-10 09:59:22, INFO: Val_loss: 0.021788770332932472 - PSNR: 19.53069282951838 - SSIM: 0.6695101006983751
20-05-10 09:59:29, INFO: EPOCH 2 - Loss: 0.0117282828638951
20-05-10 09:59:29, INFO: /content/gdrive/My Drive/MOUNT/models/checkpoint_20-05-10_09-59-29_2.pth
…
20-05-10 10:10:13, INFO: Val_loss: 0.005565627012401819 - PSNR: 25.13549313625716 - SSIM: 0.8096608777408504
20-05-10 10:10:13, INFO: Completed

20-05-10 10:48:53, INFO: 

================ SRResNet - TRAINING =================


20-05-10 10:48:53, INFO: [('crop_size', 88), ('models_dir', '/content/gdrive/My Drive/MOUNT/models'), ('num_epochs', 50), ('train_file', '/content/gdrive/My Drive/MOUNT/dataset/VOC-2012-train.pkl'), ('upscale_factor', 4), ('valid_file', '/content/gdrive/My Drive/MOUNT/dataset/VOC-2012-valid_4.pkl')]
20-05-10 10:48:57, INFO: No.parameters: 2869259
20-05-10 10:48:57, INFO: SRResNet(
  (block1): Sequential(
    (0): Conv2d(3, 128, kernel_size=(9, 9), stride=(1, 1), padding=(4, 4))
    (1): PReLU(num_parameters=1)
  )
  (residual_blocks): Sequential(
    (0): ResidualBlock(
      (conv1): Conv2d(128, 128, kernel_size=(3, 3), stride=(1, 1), padding=(1, 1))
      (bn1): BatchNorm2d(128, eps=1e-05, momentum=0.1, affine=True, track_running_stats=True)
      (prelu): PReLU(num_parameters=1)
      (conv2): Conv2d(128, 128, kernel_size=(3, 3), stride=(1, 1), padding=(1, 1))
      (bn2): BatchNorm2d(128, eps=1e-05, momentum=0.1, affine=True, track_running_stats=True)
    )
    (1): ResidualBlock(
      (conv1): Conv2d(128, 128, kernel_size=(3, 3), stride=(1, 1), padding=(1, 1))
      (bn1): BatchNorm2d(128, eps=1e-05, momentum=0.1, affine=True, track_running_stats=True)
      (prelu): PReLU(num_parameters=1)
      (conv2): Conv2d(128, 128, kernel_size=(3, 3), stride=(1, 1), padding=(1, 1))
      (bn2): BatchNorm2d(128, eps=1e-05, momentum=0.1, affine=True, track_running_stats=True)
    )
    (2): ResidualBlock(
      (conv1): Conv2d(128, 128, kernel_size=(3, 3), stride=(1, 1), padding=(1, 1))
      (bn1): BatchNorm2d(128, eps=1e-05, momentum=0.1, affine=True, track_running_stats=True)
      (prelu): PReLU(num_parameters=1)
      (conv2): Conv2d(128, 128, kernel_size=(3, 3), stride=(1, 1), padding=(1, 1))
      (bn2): BatchNorm2d(128, eps=1e-05, momentum=0.1, affine=True, track_running_stats=True)
    )
    (3): ResidualBlock(
      (conv1): Conv2d(128, 128, kernel_size=(3, 3), stride=(1, 1), padding=(1, 1))
      (bn1): BatchNorm2d(128, eps=1e-05, momentum=0.1, affine=True, track_running_stats=True)
      (prelu): PReLU(num_parameters=1)
      (conv2): Conv2d(128, 128, kernel_size=(3, 3), stride=(1, 1), padding=(1, 1))
      (bn2): BatchNorm2d(128, eps=1e-05, momentum=0.1, affine=True, track_running_stats=True)
    )
    (4): ResidualBlock(
      (conv1): Conv2d(128, 128, kernel_size=(3, 3), stride=(1, 1), padding=(1, 1))
      (bn1): BatchNorm2d(128, eps=1e-05, momentum=0.1, affine=True, track_running_stats=True)
      (prelu): PReLU(num_parameters=1)
      (conv2): Conv2d(128, 128, kernel_size=(3, 3), stride=(1, 1), padding=(1, 1))
      (bn2): BatchNorm2d(128, eps=1e-05, momentum=0.1, affine=True, track_running_stats=True)
    )
  )
  (block3): Sequential(
    (0): Conv2d(128, 128, kernel_size=(3, 3), stride=(1, 1), padding=(1, 1))
    (1): BatchNorm2d(128, eps=1e-05, momentum=0.1, affine=True, track_running_stats=True)
  )
  (block4): Sequential(
    (0): UpsampleBLock(
      (conv): Conv2d(128, 512, kernel_size=(3, 3), stride=(1, 1), padding=(1, 1))
      (pixel_shuffle): PixelShuffle(upscale_factor=2)
      (prelu): PReLU(num_parameters=1)
    )
    (1): UpsampleBLock(
      (conv): Conv2d(128, 512, kernel_size=(3, 3), stride=(1, 1), padding=(1, 1))
      (pixel_shuffle): PixelShuffle(upscale_factor=2)
      (prelu): PReLU(num_parameters=1)
    )
    (2): Conv2d(128, 3, kernel_size=(9, 9), stride=(1, 1), padding=(4, 4))
  )
)
20-05-10 10:49:31, INFO: EPOCH 1 - Loss: 0.0489770138412714
20-05-10 10:49:31, INFO: /content/gdrive/My Drive/MOUNT/models/checkpoint_20-05-10_10-49-31_1.pth
20-05-10 10:49:48, INFO: Val_loss: 0.03001290000975132 - PSNR: 17.22603220109246 - SSIM: 0.5621921772779699
20-05-10 10:50:20, INFO: EPOCH 2 - Loss: 0.019520144859949747
20-05-10 10:50:20, INFO: /content/gdrive/My Drive/MOUNT/models/checkpoint_20-05-10_10-50-20_2.pth
…
