…
20-05-17 03:02:22, INFO: Val_loss: 0.0056077586486935616 - PSNR: 25.07064560408297 - SSIM: 0.7985241074571574
20-05-17 03:02:22, INFO: Completed


20-05-17 03:24:15, INFO: 

================ ESPCN - TRAINING =================


20-05-17 03:24:15, INFO: [('crop_size', 88), ('models_dir', '/content/gdrive/My Drive/MOUNT/models'), ('num_epochs', 50), ('train_file', '/content/gdrive/My Drive/MOUNT/dataset/VOC-2012-train.pkl'), ('upscale_factor', 4), ('valid_file', '/content/gdrive/My Drive/MOUNT/dataset/VOC-2012-valid_4.pkl')]
20-05-17 03:24:19, INFO: No.parameters: 107984
20-05-17 03:24:19, INFO: ESPCN(
  (first_part): Sequential(
    (0): Conv2d(3, 64, kernel_size=(3, 3), stride=(1, 1), padding=(1, 1))
    (1): Tanh()
    (2): Conv2d(64, 64, kernel_size=(3, 3), stride=(1, 1), padding=(1, 1))
    (3): Tanh()
    (4): Conv2d(64, 64, kernel_size=(3, 3), stride=(1, 1), padding=(1, 1))
    (5): Tanh()
    (6): Conv2d(64, 32, kernel_size=(3, 3), stride=(1, 1), padding=(1, 1))
    (7): Tanh()
  )
  (last_part): Sequential(
    (0): Conv2d(32, 48, kernel_size=(3, 3), stride=(1, 1), padding=(1, 1))
    (1): PixelShuffle(upscale_factor=2)
    (2): PixelShuffle(upscale_factor=2)
  )
)
20-05-17 03:24:24, INFO: EPOCH 1 - Loss: 0.047406496023138366
20-05-17 03:24:24, INFO: /content/gdrive/My Drive/MOUNT/models/checkpoint_20-05-17_03-24-24_1.pth
20-05-17 03:24:28, INFO: Val_loss: 0.014258735813200474 - PSNR: 20.839933198883944 - SSIM: 0.6456361623615428
…
20-05-17 03:29:34, INFO: Val_loss: 0.005378717090934515 - PSNR: 25.338118409629327 - SSIM: 0.7989287440919988
20-05-17 03:29:34, INFO: Completed


20-05-17 03:30:38, INFO: 

================ ESPCN - TRAINING =================


20-05-17 03:30:38, INFO: [('crop_size', 88), ('models_dir', '/content/gdrive/My Drive/MOUNT/models'), ('num_epochs', 50), ('train_file', '/content/gdrive/My Drive/MOUNT/dataset/VOC-2012-train.pkl'), ('upscale_factor', 4), ('valid_file', '/content/gdrive/My Drive/MOUNT/dataset/VOC-2012-valid_4.pkl')]
20-05-17 03:30:42, INFO: No.parameters: 181840
20-05-17 03:30:42, INFO: ESPCN(
  (first_part): Sequential(
    (0): Conv2d(3, 64, kernel_size=(3, 3), stride=(1, 1), padding=(1, 1))
    (1): Tanh()
    (2): Conv2d(64, 64, kernel_size=(3, 3), stride=(1, 1), padding=(1, 1))
    (3): Tanh()
    (4): Conv2d(64, 64, kernel_size=(3, 3), stride=(1, 1), padding=(1, 1))
    (5): Tanh()
    (6): Conv2d(64, 64, kernel_size=(3, 3), stride=(1, 1), padding=(1, 1))
    (7): Tanh()
    (8): Conv2d(64, 64, kernel_size=(3, 3), stride=(1, 1), padding=(1, 1))
    (9): Tanh()
    (10): Conv2d(64, 32, kernel_size=(3, 3), stride=(1, 1), padding=(1, 1))
    (11): Tanh()
  )
  (last_part): Sequential(
    (0): Conv2d(32, 48, kernel_size=(3, 3), stride=(1, 1), padding=(1, 1))
    (1): PixelShuffle(upscale_factor=2)
    (2): PixelShuffle(upscale_factor=2)
  )
)
20-05-17 03:30:47, INFO: EPOCH 1 - Loss: 0.05077877696355184
20-05-17 03:30:47, INFO: /content/gdrive/My Drive/MOUNT/models/checkpoint_20-05-17_03-30-47_1.pth
20-05-17 03:30:51, INFO: Val_loss: 0.014350397512316704 - PSNR: 21.074645009137907 - SSIM: 0.6237367401456501
…
20-05-17 03:35:57, INFO: Val_loss: 0.00550693878903985 - PSNR: 25.24335119119491 - SSIM: 0.7986546063211424
20-05-17 03:35:57, INFO: Completed


20-05-17 03:37:17, INFO: 

================ ESPCN - TRAINING =================


20-05-17 03:37:17, INFO: [('crop_size', 88), ('models_dir', '/content/gdrive/My Drive/MOUNT/models'), ('num_epochs', 50), ('train_file', '/content/gdrive/My Drive/MOUNT/dataset/VOC-2012-train.pkl'), ('upscale_factor', 4), ('valid_file', '/content/gdrive/My Drive/MOUNT/dataset/VOC-2012-valid_4.pkl')]
20-05-17 03:37:21, INFO: No.parameters: 255696
20-05-17 03:37:21, INFO: ESPCN(
  (first_part): Sequential(
    (0): Conv2d(3, 64, kernel_size=(3, 3), stride=(1, 1), padding=(1, 1))
    (1): Tanh()
    (2): Conv2d(64, 64, kernel_size=(3, 3), stride=(1, 1), padding=(1, 1))
    (3): Tanh()
    (4): Conv2d(64, 64, kernel_size=(3, 3), stride=(1, 1), padding=(1, 1))
    (5): Tanh()
    (6): Conv2d(64, 64, kernel_size=(3, 3), stride=(1, 1), padding=(1, 1))
    (7): Tanh()
    (8): Conv2d(64, 64, kernel_size=(3, 3), stride=(1, 1), padding=(1, 1))
    (9): Tanh()
    (10): Conv2d(64, 64, kernel_size=(3, 3), stride=(1, 1), padding=(1, 1))
    (11): Tanh()
    (12): Conv2d(64, 64, kernel_size=(3, 3), stride=(1, 1), padding=(1, 1))
    (13): Tanh()
    (14): Conv2d(64, 32, kernel_size=(3, 3), stride=(1, 1), padding=(1, 1))
    (15): Tanh()
  )
  (last_part): Sequential(
    (0): Conv2d(32, 48, kernel_size=(3, 3), stride=(1, 1), padding=(1, 1))
    (1): PixelShuffle(upscale_factor=2)
    (2): PixelShuffle(upscale_factor=2)
  )
)
20-05-17 03:37:26, INFO: EPOCH 1 - Loss: 0.05833303228020668
20-05-17 03:37:26, INFO: /content/gdrive/My Drive/MOUNT/models/checkpoint_20-05-17_03-37-26_1.pth
20-05-17 03:37:30, INFO: Val_loss: 0.017814848572015762 - PSNR: 21.020923183866294 - SSIM: 0.6395280985590842
…
