20-05-13 00:02:55, INFO: 

================ SRGAN - TRAINING =================


20-05-13 00:02:55, INFO: [('crop_size', 88), ('models_dir', '/content/gdrive/My Drive/MOUNT/models'), ('num_epochs', 100), ('train_file', '/content/gdrive/My Drive/MOUNT/dataset/VOC-2012-train.pkl'), ('upscale_factor', 4), ('valid_file', '/content/gdrive/My Drive/MOUNT/dataset/VOC-2012-valid_4.pkl')]
20-05-13 00:06:51, INFO: generator parameters: 734219
20-05-13 00:06:51, INFO: discriminator parameters: 5218497
20-05-13 00:06:51, INFO: Generator(
  (block1): Sequential(
    (0): Conv2d(3, 64, kernel_size=(9, 9), stride=(1, 1), padding=(4, 4))
    (1): PReLU(num_parameters=1)
  )
  (residual_blocks): Sequential(
    (0): ResidualBlock(
      (conv1): Conv2d(64, 64, kernel_size=(3, 3), stride=(1, 1), padding=(1, 1))
      (bn1): BatchNorm2d(64, eps=1e-05, momentum=0.1, affine=True, track_running_stats=True)
      (prelu): PReLU(num_parameters=1)
      (conv2): Conv2d(64, 64, kernel_size=(3, 3), stride=(1, 1), padding=(1, 1))
      (bn2): BatchNorm2d(64, eps=1e-05, momentum=0.1, affine=True, track_running_stats=True)
    )
    (1): ResidualBlock(
      (conv1): Conv2d(64, 64, kernel_size=(3, 3), stride=(1, 1), padding=(1, 1))
      (bn1): BatchNorm2d(64, eps=1e-05, momentum=0.1, affine=True, track_running_stats=True)
      (prelu): PReLU(num_parameters=1)
      (conv2): Conv2d(64, 64, kernel_size=(3, 3), stride=(1, 1), padding=(1, 1))
      (bn2): BatchNorm2d(64, eps=1e-05, momentum=0.1, affine=True, track_running_stats=True)
    )
    (2): ResidualBlock(
      (conv1): Conv2d(64, 64, kernel_size=(3, 3), stride=(1, 1), padding=(1, 1))
      (bn1): BatchNorm2d(64, eps=1e-05, momentum=0.1, affine=True, track_running_stats=True)
      (prelu): PReLU(num_parameters=1)
      (conv2): Conv2d(64, 64, kernel_size=(3, 3), stride=(1, 1), padding=(1, 1))
      (bn2): BatchNorm2d(64, eps=1e-05, momentum=0.1, affine=True, track_running_stats=True)
    )
    (3): ResidualBlock(
      (conv1): Conv2d(64, 64, kernel_size=(3, 3), stride=(1, 1), padding=(1, 1))
      (bn1): BatchNorm2d(64, eps=1e-05, momentum=0.1, affine=True, track_running_stats=True)
      (prelu): PReLU(num_parameters=1)
      (conv2): Conv2d(64, 64, kernel_size=(3, 3), stride=(1, 1), padding=(1, 1))
      (bn2): BatchNorm2d(64, eps=1e-05, momentum=0.1, affine=True, track_running_stats=True)
    )
    (4): ResidualBlock(
      (conv1): Conv2d(64, 64, kernel_size=(3, 3), stride=(1, 1), padding=(1, 1))
      (bn1): BatchNorm2d(64, eps=1e-05, momentum=0.1, affine=True, track_running_stats=True)
      (prelu): PReLU(num_parameters=1)
      (conv2): Conv2d(64, 64, kernel_size=(3, 3), stride=(1, 1), padding=(1, 1))
      (bn2): BatchNorm2d(64, eps=1e-05, momentum=0.1, affine=True, track_running_stats=True)
    )
  )
  (block3): Sequential(
    (0): Conv2d(64, 64, kernel_size=(3, 3), stride=(1, 1), padding=(1, 1))
    (1): BatchNorm2d(64, eps=1e-05, momentum=0.1, affine=True, track_running_stats=True)
  )
  (block4): Sequential(
    (0): UpsampleBLock(
      (conv): Conv2d(64, 256, kernel_size=(3, 3), stride=(1, 1), padding=(1, 1))
      (pixel_shuffle): PixelShuffle(upscale_factor=2)
      (prelu): PReLU(num_parameters=1)
    )
    (1): UpsampleBLock(
      (conv): Conv2d(64, 256, kernel_size=(3, 3), stride=(1, 1), padding=(1, 1))
      (pixel_shuffle): PixelShuffle(upscale_factor=2)
      (prelu): PReLU(num_parameters=1)
    )
    (2): Conv2d(64, 3, kernel_size=(9, 9), stride=(1, 1), padding=(4, 4))
  )
)
20-05-13 00:06:51, INFO: Discriminator(
  (net): Sequential(
    (0): Conv2d(3, 64, kernel_size=(5, 5), stride=(1, 1), padding=(2, 2))
    (1): LeakyReLU(negative_slope=0.2)
    (2): Conv2d(64, 64, kernel_size=(3, 3), stride=(2, 2), padding=(1, 1))
    (3): BatchNorm2d(64, eps=1e-05, momentum=0.1, affine=True, track_running_stats=True)
    (4): LeakyReLU(negative_slope=0.2)
    (5): Conv2d(64, 128, kernel_size=(3, 3), stride=(1, 1), padding=(1, 1))
    (6): BatchNorm2d(128, eps=1e-05, momentum=0.1, affine=True, track_running_stats=True)
    (7): LeakyReLU(negative_slope=0.2)
    (8): Conv2d(128, 128, kernel_size=(3, 3), stride=(2, 2), padding=(1, 1))
    (9): BatchNorm2d(128, eps=1e-05, momentum=0.1, affine=True, track_running_stats=True)
    (10): LeakyReLU(negative_slope=0.2)
    (11): Conv2d(128, 256, kernel_size=(3, 3), stride=(1, 1), padding=(1, 1))
    (12): BatchNorm2d(256, eps=1e-05, momentum=0.1, affine=True, track_running_stats=True)
    (13): LeakyReLU(negative_slope=0.2)
    (14): Conv2d(256, 256, kernel_size=(3, 3), stride=(2, 2), padding=(1, 1))
    (15): BatchNorm2d(256, eps=1e-05, momentum=0.1, affine=True, track_running_stats=True)
    (16): LeakyReLU(negative_slope=0.2)
    (17): Conv2d(256, 512, kernel_size=(3, 3), stride=(1, 1), padding=(1, 1))
    (18): BatchNorm2d(512, eps=1e-05, momentum=0.1, affine=True, track_running_stats=True)
    (19): LeakyReLU(negative_slope=0.2)
    (20): Conv2d(512, 512, kernel_size=(3, 3), stride=(2, 2), padding=(1, 1))
    (21): BatchNorm2d(512, eps=1e-05, momentum=0.1, affine=True, track_running_stats=True)
    (22): LeakyReLU(negative_slope=0.2)
    (23): AdaptiveAvgPool2d(output_size=1)
    (24): Conv2d(512, 1024, kernel_size=(1, 1), stride=(1, 1))
    (25): LeakyReLU(negative_slope=0.2)
    (26): Conv2d(1024, 1, kernel_size=(1, 1), stride=(1, 1))
  )
)
20-05-13 00:11:36, INFO: EPOCH: 1 - D_loss: 0.8831165738864029 - sr_prob: 0.32676023429454754 - hr_prob: 0.44364366160854496 - G_loss: 0.0160506684333086
20-05-13 00:11:36, INFO: /content/gdrive/My Drive/MOUNT/models/G_checkpoint_20-05-13_00-11-36_1.pth
20-05-13 00:11:36, INFO: /content/gdrive/My Drive/MOUNT/models/D_checkpoint_20-05-13_00-11-36_1.pth
…
