…
20-05-10 06:47:35, INFO: Val_loss: 0.00545088853687048 - PSNR: 21.642810012866313 - SSIM: 0.7506850243684525
20-05-10 06:47:35, INFO: Completed



20-05-10 07:38:50, INFO: 

================ ESPCN - TRAINING =================


20-05-10 07:38:50, INFO: [('crop_size', 88), ('models_dir', '/content/gdrive/My Drive/MOUNT/models'), ('num_epochs', 50), ('train_file', '/content/gdrive/My Drive/MOUNT/dataset/VOC-2012-train.pkl'), ('upscale_factor', 4), ('valid_file', '/content/gdrive/My Drive/MOUNT/dataset/VOC-2012-valid_4.pkl')]
20-05-10 07:38:55, INFO: No.parameters: 107984
20-05-10 07:38:55, INFO: ESPCN(
  (first_part): Sequential(
    (0): Conv2d(3, 64, kernel_size=(3, 3), stride=(1, 1), padding=(1, 1))
    (1): Tanh()
    (2): Conv2d(64, 64, kernel_size=(3, 3), stride=(1, 1), padding=(1, 1))
    (3): Tanh()
    (4): Conv2d(64, 64, kernel_size=(3, 3), stride=(1, 1), padding=(1, 1))
    (5): Tanh()
    (6): Conv2d(64, 32, kernel_size=(3, 3), stride=(1, 1), padding=(1, 1))
    (7): Tanh()
  )
  (last_part): Sequential(
    (0): Conv2d(32, 48, kernel_size=(3, 3), stride=(1, 1), padding=(1, 1))
    (1): PixelShuffle(upscale_factor=2)
    (2): PixelShuffle(upscale_factor=2)
  )
)
20-05-10 07:39:01, INFO: EPOCH 1 - Loss: 0.046317249690492945
20-05-10 07:39:01, INFO: /content/gdrive/My Drive/MOUNT/models/checkpoint_20-05-10_07-39-01_1.pth
20-05-10 07:39:05, INFO: Val_loss: 0.013607333414256573 - PSNR: 17.979895579713947 - SSIM: 0.5581424688552168
…
20-05-10 07:44:51, INFO: Val_loss: 0.005389842204749584 - PSNR: 22.866695471421096 - SSIM: 0.7617724102341065
20-05-10 07:44:51, INFO: Completed


20-05-10 07:45:59, INFO: 

================ ESPCN - TRAINING =================


20-05-10 07:45:59, INFO: [('crop_size', 88), ('models_dir', '/content/gdrive/My Drive/MOUNT/models'), ('num_epochs', 50), ('train_file', '/content/gdrive/My Drive/MOUNT/dataset/VOC-2012-train.pkl'), ('upscale_factor', 4), ('valid_file', '/content/gdrive/My Drive/MOUNT/dataset/VOC-2012-valid_4.pkl')]
20-05-10 07:46:03, INFO: No.parameters: 181840
20-05-10 07:46:03, INFO: ESPCN(
  (first_part): Sequential(
    (0): Conv2d(3, 64, kernel_size=(3, 3), stride=(1, 1), padding=(1, 1))
    (1): Tanh()
    (2): Conv2d(64, 64, kernel_size=(3, 3), stride=(1, 1), padding=(1, 1))
    (3): Tanh()
    (4): Conv2d(64, 64, kernel_size=(3, 3), stride=(1, 1), padding=(1, 1))
    (5): Tanh()
    (6): Conv2d(64, 64, kernel_size=(3, 3), stride=(1, 1), padding=(1, 1))
    (7): Tanh()
    (8): Conv2d(64, 64, kernel_size=(3, 3), stride=(1, 1), padding=(1, 1))
    (9): Tanh()
    (10): Conv2d(64, 32, kernel_size=(3, 3), stride=(1, 1), padding=(1, 1))
    (11): Tanh()
  )
  (last_part): Sequential(
    (0): Conv2d(32, 48, kernel_size=(3, 3), stride=(1, 1), padding=(1, 1))
    (1): PixelShuffle(upscale_factor=2)
    (2): PixelShuffle(upscale_factor=2)
  )
)
20-05-10 07:46:10, INFO: EPOCH 1 - Loss: 0.05270579055448373
20-05-10 07:46:10, INFO: /content/gdrive/My Drive/MOUNT/models/checkpoint_20-05-10_07-46-10_1.pth
20-05-10 07:46:13, INFO: Val_loss: 0.016610927879810333 - PSNR: 17.436698213216122 - SSIM: 0.5525878638649092
…
20-05-10 07:52:06, INFO: Val_loss: 0.007209278177469969 - PSNR: 22.405335125731803 - SSIM: 0.7391102290619738
20-05-10 07:52:06, INFO: Completed


20-05-10 08:10:03, INFO: 

================ ESPCN - TRAINING =================


20-05-10 08:10:03, INFO: [('crop_size', 88), ('models_dir', '/content/gdrive/My Drive/MOUNT/models'), ('num_epochs', 50), ('train_file', '/content/gdrive/My Drive/MOUNT/dataset/VOC-2012-train.pkl'), ('upscale_factor', 4), ('valid_file', '/content/gdrive/My Drive/MOUNT/dataset/VOC-2012-valid_4.pkl')]
20-05-10 08:10:06, INFO: No.parameters: 255696
20-05-10 08:10:06, INFO: ESPCN(
  (first_part): Sequential(
    (0): Conv2d(3, 64, kernel_size=(3, 3), stride=(1, 1), padding=(1, 1))
    (1): Tanh()
    (2): Conv2d(64, 64, kernel_size=(3, 3), stride=(1, 1), padding=(1, 1))
    (3): Tanh()
    (4): Conv2d(64, 64, kernel_size=(3, 3), stride=(1, 1), padding=(1, 1))
    (5): Tanh()
    (6): Conv2d(64, 64, kernel_size=(3, 3), stride=(1, 1), padding=(1, 1))
    (7): Tanh()
    (8): Conv2d(64, 64, kernel_size=(3, 3), stride=(1, 1), padding=(1, 1))
    (9): Tanh()
    (10): Conv2d(64, 64, kernel_size=(3, 3), stride=(1, 1), padding=(1, 1))
    (11): Tanh()
    (12): Conv2d(64, 64, kernel_size=(3, 3), stride=(1, 1), padding=(1, 1))
    (13): Tanh()
    (14): Conv2d(64, 32, kernel_size=(3, 3), stride=(1, 1), padding=(1, 1))
    (15): Tanh()
  )
  (last_part): Sequential(
    (0): Conv2d(32, 48, kernel_size=(3, 3), stride=(1, 1), padding=(1, 1))
    (1): PixelShuffle(upscale_factor=2)
    (2): PixelShuffle(upscale_factor=2)
  )
)
20-05-10 08:10:13, INFO: EPOCH 1 - Loss: 0.054885457490881286
20-05-10 08:10:13, INFO: /content/gdrive/My Drive/MOUNT/models/checkpoint_20-05-10_08-10-13_1.pth
20-05-10 08:10:17, INFO: Val_loss: 0.01726575754582882 - PSNR: 19.972018224479303 - SSIM: 0.5977354836539245
…
