…
20-05-10 09:21:16, INFO: [('crop_size', 88), ('kernel_size', 3), ('models_dir', '/media/vutrungnghia/New Volume/MachineLearningAndDataMining/SuperResolution/models'), ('num_epochs', 50), ('train_file', '/media/vutrungnghia/New Volume/MachineLearningAndDataMining/SuperResolution/dataset/hyperparameter-tuning/VOC-2012-train.pkl'), ('upscale_factor', 4), ('valid_file', '/media/vutrungnghia/New Volume/MachineLearningAndDataMining/SuperResolution/dataset/hyperparameter-tuning/VOC-2012-valid_4.pkl')]
20-05-10 09:21:17, INFO: No.parameters: 107984
20-05-10 09:21:17, INFO: ESPCN(
  (first_part): Sequential(
    (0): Conv2d(3, 64, kernel_size=(3, 3), stride=(1, 1), padding=(1, 1))
    (1): Tanh()
    (2): Conv2d(64, 64, kernel_size=(3, 3), stride=(1, 1), padding=(1, 1))
    (3): Tanh()
    (4): Conv2d(64, 64, kernel_size=(3, 3), stride=(1, 1), padding=(1, 1))
    (5): Tanh()
    (6): Conv2d(64, 32, kernel_size=(3, 3), stride=(1, 1), padding=(1, 1))
    (7): Tanh()
  )
  (last_part): Sequential(
    (0): Conv2d(32, 48, kernel_size=(3, 3), stride=(1, 1), padding=(1, 1))
    (1): PixelShuffle(upscale_factor=2)
    (2): PixelShuffle(upscale_factor=2)
  )
)
20-05-10 09:21:21, INFO: EPOCH 1 - Loss: 0.08507031744718552
20-05-10 09:21:21, INFO: /media/vutrungnghia/New Volume/MachineLearningAndDataMining/SuperResolution/models/checkpoint_20-05-10_09-21-21_1.pth
20-05-10 09:21:34, INFO: Val_loss: 0.033938780426979065 - PSNR: 14.482826697818558 - SSIM: 0.4041194714868851
…
20-05-10 09:42:08, INFO: /media/vutrungnghia/New Volume/MachineLearningAndDataMining/SuperResolution/models/checkpoint_20-05-10_09-42-08_50.pth
20-05-10 09:42:29, INFO: Val_loss: 0.005120125133544207 - PSNR: 22.411659049748575 - SSIM: 0.7668568576934699
20-05-10 09:42:29, INFO: Completed




================ ESPCN - TRAINING =================


[('crop_size', 88), ('kernel_size', 3), ('models_dir', '/content/gdrive/My Drive/MOUNT/models'), ('num_epochs', 50), ('train_file', '/content/gdrive/My Drive/MOUNT/dataset/VOC-2012-train.pkl'), ('upscale_factor', 4), ('valid_file', '/content/gdrive/My Drive/MOUNT/dataset/VOC-2012-valid_4.pkl')]
No.parameters: 181840
ESPCN(
  (first_part): Sequential(
    (0): Conv2d(3, 64, kernel_size=(3, 3), stride=(1, 1), padding=(1, 1))
    (1): Tanh()
    (2): Conv2d(64, 64, kernel_size=(3, 3), stride=(1, 1), padding=(1, 1))
    (3): Tanh()
    (4): Conv2d(64, 64, kernel_size=(3, 3), stride=(1, 1), padding=(1, 1))
    (5): Tanh()
    (6): Conv2d(64, 64, kernel_size=(3, 3), stride=(1, 1), padding=(1, 1))
    (7): Tanh()
    (8): Conv2d(64, 64, kernel_size=(3, 3), stride=(1, 1), padding=(1, 1))
    (9): Tanh()
    (10): Conv2d(64, 32, kernel_size=(3, 3), stride=(1, 1), padding=(1, 1))
    (11): Tanh()
  )
  (last_part): Sequential(
    (0): Conv2d(32, 48, kernel_size=(3, 3), stride=(1, 1), padding=(1, 1))
    (1): PixelShuffle(upscale_factor=2)
    (2): PixelShuffle(upscale_factor=2)
  )
)
100% 16/16 [00:01<00:00, 12.96it/s]
EPOCH 1 - Loss: 0.10177933609485626
/content/gdrive/My Drive/MOUNT/models/checkpoint_20-05-10_02-34-50_1.pth
100% 300/300 [00:10<00:00, 29.93it/s]
PSNR: 15.303576090084265 - SSIM: 0.47420483546402487
100% 16/16 [00:01<00:00, 13.92it/s]
…
100% 300/300 [00:10<00:00, 28.47it/s]
PSNR: 22.408898312503073 - SSIM: 0.7631729451768042
Completed

20-05-10 02:49:17, INFO: 

================ ESPCN - TRAINING =================


20-05-10 02:49:17, INFO: [('crop_size', 88), ('kernel_size', 3), ('models_dir', '/content/gdrive/My Drive/MOUNT/models'), ('num_epochs', 50), ('train_file', '/content/gdrive/My Drive/MOUNT/dataset/VOC-2012-train.pkl'), ('upscale_factor', 4), ('valid_file', '/content/gdrive/My Drive/MOUNT/dataset/VOC-2012-valid_4.pkl')]
20-05-10 02:49:20, INFO: No.parameters: 255696
20-05-10 02:49:20, INFO: ESPCN(
  (first_part): Sequential(
    (0): Conv2d(3, 64, kernel_size=(3, 3), stride=(1, 1), padding=(1, 1))
    (1): Tanh()
    (2): Conv2d(64, 64, kernel_size=(3, 3), stride=(1, 1), padding=(1, 1))
    (3): Tanh()
    (4): Conv2d(64, 64, kernel_size=(3, 3), stride=(1, 1), padding=(1, 1))
    (5): Tanh()
    (6): Conv2d(64, 64, kernel_size=(3, 3), stride=(1, 1), padding=(1, 1))
    (7): Tanh()
    (8): Conv2d(64, 64, kernel_size=(3, 3), stride=(1, 1), padding=(1, 1))
    (9): Tanh()
    (10): Conv2d(64, 64, kernel_size=(3, 3), stride=(1, 1), padding=(1, 1))
    (11): Tanh()
    (12): Conv2d(64, 64, kernel_size=(3, 3), stride=(1, 1), padding=(1, 1))
    (13): Tanh()
    (14): Conv2d(64, 32, kernel_size=(3, 3), stride=(1, 1), padding=(1, 1))
    (15): Tanh()
  )
  (last_part): Sequential(
    (0): Conv2d(32, 48, kernel_size=(3, 3), stride=(1, 1), padding=(1, 1))
    (1): PixelShuffle(upscale_factor=2)
    (2): PixelShuffle(upscale_factor=2)
  )
)
20-05-10 02:49:23, INFO: EPOCH 1 - Loss: 0.09858826658129692
20-05-10 02:49:24, INFO: /content/gdrive/My Drive/MOUNT/models/checkpoint_20-05-10_02-49-23_1.pth
20-05-10 02:49:34, INFO: PSNR: 14.448532350802388 - SSIM: 0.41315802694345244
20-05-10 02:49:35, INFO: EPOCH 2 - Loss: 0.0358619119822979
…
